…
/home/andy/Datasets/ASL/Frames/Book/Face/ncslgr10a-015-03-dom-BOOK
15 frames
BOOK
/home/andy/Datasets/ASL/Frames/Book/Face/ncslgr10f-052-02-dom-BOOK
15 frames
============================ Model Parameters ============================
Kernel Size:  (5, 5)
View:  Face
Number of epochs:  150
Batch size:  10
============================== Model Summary ==============================
_________________________________________________________________
Layer (type)                 Output Shape              Param #   
=================================================================
time_distributed_1 (TimeDist (None, 15, 60, 81, 32)    832       
_________________________________________________________________
time_distributed_2 (TimeDist (None, 15, 30, 40, 32)    0         
_________________________________________________________________
time_distributed_3 (TimeDist (None, 15, 38400)         0         
_________________________________________________________________
time_distributed_4 (TimeDist (None, 15, 128)           4915328   
_________________________________________________________________
time_distributed_5 (TimeDist (None, 15, 128)           0         
_________________________________________________________________
lstm_1 (LSTM)                (None, 128)               131584    
_________________________________________________________________
dense_2 (Dense)              (None, 128)               16512     
_________________________________________________________________
dropout_2 (Dropout)          (None, 128)               0         
_________________________________________________________________
dense_3 (Dense)              (None, 20)                2580      
=================================================================
Total params: 5,066,836.0
Trainable params: 5,066,836.0
Non-trainable params: 0.0
_________________________________________________________________
================================ Training: ================================
Training:
Train on 1268 samples, validate on 141 samples
Epoch 1/150
  10/1268 [......................
…
