(1340, 60, 81, 3) train samples
(75, 60, 81, 3) val samples
(364, 60, 81, 3) test samples
============================ Model Parameters ============================
Kernel Size:  (3, 3)
Pooling size:  (2, 2)
Number of epochs:  150
Batch size:  10
Number of classes:  20
============================== Model Summary ==============================
_________________________________________________________________
Layer (type)                 Output Shape              Param #   
=================================================================
conv2d_1 (Conv2D)            (None, 60, 81, 32)        896       
_________________________________________________________________
activation_1 (Activation)    (None, 60, 81, 32)        0         
_________________________________________________________________
conv2d_2 (Conv2D)            (None, 58, 79, 32)        9248      
_________________________________________________________________
activation_2 (Activation)    (None, 58, 79, 32)        0         
_________________________________________________________________
max_pooling2d_1 (MaxPooling2 (None, 29, 39, 32)        0         
_________________________________________________________________
dropout_1 (Dropout)          (None, 29, 39, 32)        0         
_________________________________________________________________
conv2d_3 (Conv2D)            (None, 29, 39, 64)        18496     
_________________________________________________________________
activation_3 (Activation)    (None, 29, 39, 64)        0         
_________________________________________________________________
conv2d_4 (Conv2D)            (None, 27, 37, 64)        36928     
_________________________________________________________________
activation_4 (Activation)    (None, 27, 37, 64)        0         
_________________________________________________________________
max_pooling2d_2 (MaxPooling2 (None, 13, 18, 64)        0         
_________________________________________________________________
dropout_2 (Dropout)          (None, 13, 18, 64)        0         
_________________________________________________________________
flatten_1 (Flatten)          (None, 14976)             0         
_________________________________________________________________
dense_1 (Dense)              (None, 512)               7668224   
_________________________________________________________________
activation_5 (Activation)    (None, 512)               0         
_________________________________________________________________
dropout_3 (Dropout)          (None, 512)               0         
_________________________________________________________________
dense_2 (Dense)              (None, 20)                10260     
_________________________________________________________________
activation_6 (Activation)    (None, 20)                0         
=================================================================
Total params: 7,744,052.0
Trainable params: 7,744,052.0
Non-trainable params: 0.0
_________________________________________________________________
================================ Training: ================================
Training:
Train on 1340 samples, validate on 75 samples
Epoch 1/150
  10/1340 [....................
…
